pytorch-project/models/all_exercises_model.pt (torch, 90096 bytes, 4 tensors)

l1.weight f4 [200, 99]
000000 86 0b c1 3d 28 4a a0 3e 18 36 56 be 20 95 12 bd
       0.09426026 0.31306577 -0.20919073 -0.035786748
000010 dc 86 58 3e af 3b 8f be 20 d0 c2 3c c3 56 89 3e
       0.21145195 -0.27975222 0.023780882 0.26824006
000020 c2 07 40 be 99 56 22 bc e8 ad a4 3e 99 4b 0a be
       -0.1875296 -0.009908342 0.3216393 -0.135054
000030 dd 07 63 3d f1 4e 27 3e d8 14 16 be f6 a7 a4 3d
       0.05542742 0.16338708 -0.14656389 0.080398485
000040 15 44 76 3e 10 af e3 bd ab 1f 6a 3d ab fe f8 3d
       0.24049409 -0.11117375 0.057159107 0.12157949
000050 5c f6 59 be 12 91 1e 3d e4 09 7d 3e fb 9c 4a be
       -0.21285385 0.03871257 0.24710804 -0.19786446
000060 41 6a 60 3d b6 19 1e 3e ab d7 19 be 2a 77 88 3c
       0.05478883 0.15439495 -0.15023677 0.016658384
000070 9f fc aa 3e 34 39 03 be f0 97 ad bb 54 c2 26 3e
       0.3339586 -0.1281479 -0.0052976534 0.16285068
000080 e0 33 66 be 45 ea ad bd 66 e3 0e be 68 a9 7b be
       -0.22480726 -0.08491949 -0.13953933 -0.24576342
000090 94 57 c7 3d 7e be 5d be 14 e5 82 be 21 13 57 bd
       0.09733501 -0.21654698 -0.25565398 -0.052508477
0000a0 a3 11 fe bd 67 e9 f8 bd 29 07 96 bd 88 e6 6a 3d
       -0.12405708 -0.12153893 -0.073255844 0.057348758
0000b0 ac 25 93 be 4a d3 0d bd 03 4d 39 3e 01 6f 3d be
       -0.2873968 -0.03462533 0.18095784 -0.18499376
0000c0 1b 03 cf 3d 7a 62 e0 3e 45 f4 8d be e4 a3 90 3d
       0.10108014 0.43825132 -0.27725425 0.0706251
0000d0 29 80 ae 3d fb 8a 52 be be 03 82 bc 92 cf e3 3e
       0.08520538 -0.2056083 -0.015870925 0.444943
0000e0 a1 29 7f be e2 7b 84 3d 3d a2 dc 3d c0 da 86 be
       -0.24918224 0.06468941 0.10773132 -0.26338768
0000f0 29 02 1b 3d 92 d3 ea 3e e0 77 30 be 0b 07 8d 3d
       0.037843857 0.4586454 -0.17233229 0.06886109
000100 87 56 09 3e 66 da a3 bd fa 0c 39 bd 38 4f d8 3e
       0.13411914 -0.080006406 -0.04517839 0.4224794
000110 42 72 60 be a2 05 6b be e0 bd b8 3d c7 0c 96 3d
       -0.21918586 -0.22951367 0.09020591 0.07326656
000120 37 f8 0a be a1 9b 5f be d3 ec 87 be a0 31 71 be
       -0.13571249 -0.21836711 -0.2654787 -0.23554087
000130 cd db f1 3d 67 cf e4 3e c6 eb 06 3e 53 97 ef 3d
       0.11809502 0.44689485 0.13175878 0.11698785
000140 3a 89 b4 3e e3 ee 56 be 45 eb b5 ba ec be 78 3e
       0.35260946 -0.20989566 -0.001387932 0.24291581
000150 d9 bd b5 bd 35 e7 07 bd e6 61 25 3d 11 98 2c be
       -0.08874101 -0.03317948 0.040376566 -0.16854884
000160 72 3f 22 be 5e 43 46 3e c9 6c e3 bd 5d 6e 1e bc
       -0.15844515 0.19361636 -0.111047335 -0.009669867
000170 0c 5d 49 3e a0 09 05 be 00 f0 5e 3d 85 68 2f 3e
       0.19664401 -0.12991953 0.0544281 0.17129715
000180 80 7a 8c bd 52 62 2b 3e 6e 45 4d 3e 5c 4e a0 bc
       -0.068593025 0.16736725 0.20046017 -0.019568615
000190 36 99 e6 bd ff 86 db 3c 52 9c ed 3d 2c 0f 07 be
       -0.112596914 0.02679777 0.11602081 -0.13189381
0001a0 1e 4b ab 3c 86 96 10 3e 1b c0 d3 bd ba a1 9e 3c
       0.020909842 0.1411992 -0.103393756 0.019364227
0001b0 07 0e 03 3e 41 09 ad bd 9e 0a 51 bb 20 ce 37 3d
       0.1279832 -0.08449031 -0.0031897197 0.04487431
0001c0 30 87 36 3c a6 41 90 bd 5b ff e2 3b af 7e f9 3c
       0.01114063 -0.070437714 0.0069274134 0.030455915
0001d0 0d 45 c8 bb 63 73 13 3e 36 02 d3 bd 19 eb b4 bd
       -0.006111747 0.14399485 -0.10303156 -0.08833904
0001e0 70 7b 26 bb 77 66 72 bd 86 e1 de bc 26 ae c9 3d
       -0.0025403164 -0.05917975 -0.027207147 0.09847669
0001f0 95 f2 10 be 97 a3 00 3d 53 a8 0a bd 26 6f 65 bc
       -0.14155038 0.03140601 -0.033851933 -0.014003551
000200 3f 25 5f bd 6d 99 8d 3c 3c 4c 1a 3c 3a f4 85 bd
       -0.05447888 0.017285073 0.00941759 -0.06540723
000210 7e 09 9b bc a1 cb 88 bc 7e 24 d3 bd 25 31 5d 3d
       -0.018925425 -0.01669866 -0.10309695 0.054001946
000220 9e 96 b4 3c b1 62 da bd 93 1c c4 bd f6 0a dc bd
       0.022044476 -0.10663355 -0.095757626 -0.10744278
000230 cc 78 0b 3c 0e 7b 2b bd ff 5e 11 3d 6d 64 04 be
       0.008512687 -0.0418654 0.035490986 -0.12928934
000240 fa d7 1e be 45 64 f1 b9 7e 4c 35 bd 4a e3 1e be
       -0.15512076 -0.0004604181 -0.0442624 -0.15516391
000250 ec ba b1 bc 2f d3 dd bc bf d1 30 bd a1 3a 0c be
       -0.021695577 -0.02707824 -0.04316878 -0.1369424
000260 b8 88 08 be 81 c1 b1 bd e1 f8 cb bd 40 0c 00 3d
       -0.13333404 -0.08679486 -0.09959579 0.031261683
000270 a0 96 e8 bd 30 19 1d 3d b9 5a 0a be 15 a0 09 be
       -0.113568544 0.0383541 -0.1351117 -0.13439973
000280 64 a1 fa bd c4 95 9b bd 46 2b 17 be 83 71 8c bc
       -0.12237814 -0.07596925 -0.14762601 -0.01714397
000290 d6 55 aa bd 7f b2 fb bd 7d 8d 12 be 7e 57 ba bc
       -0.08317153 -0.12289905 -0.14311786 -0.022746798
0002a0 fe bb c3 3c d5 64 86 bd 48 b5 e8 bd 4f 45 26 bd
       0.023893353 -0.06562201 -0.11362702 -0.04059344
0002b0 bf 7d 11 bc 12 8e ae bc ad a5 83 bc 8f 11 e5 bc
       -0.008880078 -0.021307979 -0.016070211 -0.027962474
0002c0 54 0b 98 bd 92 68 ea 3c 9f c3 db bd da 9a 6e 3c
       -0.07424036 0.028614316 -0.10730671 0.014563287
0002d0 b1 af 8d bd f7 c8 e8 bd 55 bc b0 bd f7 da fd bd
       -0.06918276 -0.11366456 -0.086296715 -0.1239528
0002e0 66 7a 63 bd 70 b8 76 bd 40 b1 40 3c 4e 65 64 bd
       -0.05553665 -0.060234487 0.01176101 -0.055760674
0002f0 4b d2 07 be f1 93 f3 bd 0b ce 26 bc f7 45 af bc
       -0.13263814 -0.11893452 -0.01018096 -0.021395667
000300 ff ff c9 bb 31 3a 9d bd 55 0d 73 bc 69 93 d5 bd
       -0.0061645503 -0.07677115 -0.014834722 -0.10428507
000310 7e 5c b3 bd aa 1e 1c be 37 e2 19 be 63 f4 80 bd
       -0.08757876 -0.15246072 -0.150277 -0.06296613
000320 dc 85 59 bd 8e 4b ac bd 90 12 46 be 5d fe 3b bd
       -0.053106174 -0.084128484 -0.19343019 -0.045896877
000330 c1 82 1b 3d 1c 12 29 be 96 26 a0 bd 3c cd 5a 3c
       0.037966494 -0.16510814 -0.0781986 0.013354596
000340 0e 46 dc bc 34 f8 b9 bd d0 fa fa bd bd 16 bb bd
       -0.026888873 -0.09080544 -0.1225487 -0.09135196
000350 49 22 bf 3c 35 d3 b3 bd 3b ac 32 be 5e ad 8e bb
       0.023331778 -0.08780519 -0.17448513 -0.004354163
000360 94 52 fc bd 6b 0d 37 bd d4 d8 96 ba 31 e8 d0 bd
       -0.12320438 -0.04469053 -0.0011508712 -0.10200537
000370 7e bc 1c be f1 6c 88 3d 91 8d 87 3c fa a7 1e be
       -0.15306279 0.06661404 0.016546996 -0.15493765
000380 72 8b 53 3c c5 35 90 bd 91 b8 17 be 4e 2e 20 3d
       0.012911664 -0.07041506 -0.148165 0.03910666
000390 1f 06 ed bc fc 8a 60 be b1 12 1a 3c 20 11 ad bd
       -0.028933583 -0.21928018 0.00940387 -0.08450532
0003a0 b1 b6 00 bd 63 4a 89 bc 25 52 03 be 0e e6 bf 3d
       -0.031424228 -0.016759103 -0.12824304 0.09370051
0003b0 a9 03 4a 3d 27 9e 95 bb b7 3e 04 3c 11 07 c1 3d
       0.049319897 -0.0045659724 0.008071593 0.09425176
0003c0 f1 98 76 bd 74 d2 6e 3d 68 6e e3 3d 29 bb 5e bd
       -0.06020445 0.058306172 0.11105043 -0.05437771
0003d0 28 75 95 3d 04 0f 00 3d 08 52 97 bd 95 a3 dc 3d
       0.072977364 0.03126432 -0.07388693 0.10773388
0003e0 c0 3a eb 3c 43 4b 00 be 89 f4 94 3d 5e a7 01 3e
       0.028714538 -0.1252871 0.07273204 0.12661502
0003f0 76 8a dd bd 06 1a c3 3d 4a d0 18 3e ca f4 db 3a
       -0.10817425 0.09526448 0.14923206 0.0016781327

l1.bias f4 [200]
000000 18 d6 48 be 88 36 6f bd a2 f5 86 bd c7 2c 7d bc
       -0.1961292 -0.058401614 -0.065898195 -0.01545257
000010 a6 a1 f7 bd f7 e5 00 be 56 1a 10 3b c7 5f 6a 3d
       -0.12091379 -0.12587725 0.0021988354 0.057220247
000020 f8 ff 12 be d4 c8 00 3d a8 d8 46 bd 41 f3 2d 3d
       -0.14355457 0.031441525 -0.048546463 0.042468313
000030 02 b5 a0 3e 1f ef 13 3e 95 9f 16 3d 04 c7 da bb
       0.31388098 0.14446686 0.036773283 -0.0066765565
000040 10 61 8a bd 29 ff a0 bd 51 c6 36 3e 0d 9e c5 be
       -0.067567945 -0.07861168 0.17849089 -0.38597146
000050 64 24 76 3d e0 cd eb bb 67 20 37 be 81 c2 b9 bd
       0.0600933 -0.007196173 -0.17883454 -0.09070302
000060 6a 01 14 3e 64 e8 47 be f6 a5 71 bd 01 59 1a be
       0.14453664 -0.19522244 -0.058996163 -0.15073015
000070 d6 60 0c be c9 8a 81 3e 7a f7 09 bd e6 18 2f 3c
       -0.13708815 0.25301197 -0.033683278 0.010687089
000080 6c cb 48 bd b8 05 11 3d ce 34 dd 3c 58 90 c3 bd
       -0.049022123 0.035405844 0.027002718 -0.09549016
000090 ea 87 4d bd 86 bc 60 bd 2f 12 31 3d 95 b4 10 be
       -0.050178446 -0.05486729 0.04323023 -0.14131387
0000a0 f8 43 ad 3c 7a 7e 54 bd 6c 70 8b 3e 3d d5 c4 bd
       0.021150574 -0.05187843 0.2723421 -0.096109845
0000b0 03 3f 9f 3e bd 30 e7 bd d3 c5 e3 3c a8 22 0f be
       0.31102762 -0.11288593 0.02780429 -0.13978064
0000c0 c8 f1 85 bd 29 10 6f bd 89 3a fe bd dd b8 8c 3d
       -0.06540257 -0.05836502 -0.124135084 0.068711974
0000d0 fe cc 5a 3d 84 3d 91 3c f7 a2 6a bd 72 03 7d 3b
       0.053418152 0.017729528 -0.05728432 0.003860679
0000e0 0e d1 1f 3e b4 ad b8 bd 8f 71 c2 bd b1 b7 f6 bc
       0.15607092 -0.09017506 -0.09494316 -0.030116888
0000f0 fa 84 13 be 51 6b 31 3c 22 4c 47 bd 0b 32 64 bd
       -0.14406195 0.010828809 -0.04865659 -0.055711787
000100 44 38 80 3e 0b 8c ec bd c1 15 2d bd 00 32 55 3e
       0.25042927 -0.115501486 -0.042257074 0.20819855
000110 70 bb 0c 3d 57 b1 6e bc b0 ec 35 3e e6 a9 4c 3d
       0.03435844 -0.014568648 0.1776607 0.049966715
000120 96 91 a9 bd 7c 92 26 3d e3 b2 f1 bd f8 13 05 be
       -0.082797214 0.040667042 -0.11801698 -0.12995899
000130 a8 13 40 bd 43 b9 ec bc 04 69 df 3d c6 4b 9d 3d
       -0.046893746 -0.028896933 0.10908702 0.07680468
000140 85 b9 9c 3c d0 a0 92 3e 7b 76 c8 bd 3a e7 c4 3e
       0.019131431 0.28638315 -0.09788223 0.38457662
000150 9a cd ad bc 7a 8a 60 bd 9e f1 a5 bc e8 60 1b 3e
       -0.021216203 -0.05481956 -0.020256814 0.15173686
000160 ca a8 7a be f1 e0 90 bd c4 95 0f 3e f4 e7 88 bc
       -0.2447845 -0.07074154 0.14021975 -0.016712166
000170 0b 63 5b bd e1 e0 a1 3d 50 00 ce bd 60 85 19 bc
       -0.05356125 0.0790422 -0.10058653 -0.009370178
000180 80 69 60 bd 5d 32 2e 3d 4b a1 07 3d 02 53 22 bd
       -0.054788113 0.0425285 0.033112805 -0.039629944
000190 45 4d 05 bd 24 c2 ce 3c 39 53 7c bc ea 59 c6 bd
       -0.032544393 0.025239058 -0.015400701 -0.096851185
0001a0 4f eb b3 bd b6 c8 b9 bd c3 18 47 bd e2 d2 63 bd
       -0.08785116 -0.09071486 -0.0486076 -0.055621035
0001b0 c0 35 c8 bd 46 2e a8 bd 73 a1 1f 3d e9 ac bd 3c
       -0.09775877 -0.08211951 0.03897233 0.023153739
0001c0 16 f6 91 3c 3e 68 08 bc 41 20 f8 bd b0 00 a3 be
       0.017817538 -0.0083256345 -0.12115527 -0.31836462
0001d0 8b ea 69 3e 04 cf 1c be b7 9b 7b 3d 46 67 cd bb
       0.22843377 -0.15313345 0.061427798 -0.0062684147
0001e0 9a 58 aa bd f7 8c cb 3c 8b 54 ee 3d 3b 47 5c bd
       -0.08317681 0.02484749 0.11637219 -0.05377887
0001f0 9a 37 be bd da 79 91 3c 38 04 80 be c0 ab bf bd
       -0.09287949 0.017758299 -0.2500322 -0.093589306
000200 93 ef a7 bd c7 d4 81 bc c3 2d 2b 3e 70 ef 73 bd
       -0.08199992 -0.01584853 0.16716675 -0.059554517
000210 3f 52 0f 3e 06 3c 00 be d4 6d ca bd 19 c7 08 bd
       0.13996218 -0.12522897 -0.09884229 -0.033393
000220 9d 03 7f 3e ef ea d1 3d 76 9a d5 bd 2f f4 82 3c
       0.24903722 0.10249888 -0.10429852 0.015985576
000230 bb 6d 42 3d 56 14 d9 bd a4 74 69 3c 7b 34 fb bd
       0.04746793 -0.10599582 0.014249001 -0.12265869
000240 b2 44 c4 bd 10 a0 e2 3c 14 ef 38 be d6 8c 34 3c
       -0.09583415 0.027664214 -0.18059951 0.011019906
000250 2d 9c d8 bd 11 b5 ef bd 8d 40 a0 be 46 cc c7 bd
       -0.10576663 -0.117044576 -0.31299248 -0.09755759
000260 8c 1f 01 be 4b 16 6d 3d 9b a8 d1 bd 03 ee 8b be
       -0.1260969 0.05788259 -0.10237237 -0.27330026
000270 b2 d8 02 be a3 03 82 bd 8b e4 83 bd 68 43 9e bd
       -0.12777975 -0.0634835 -0.064400755 -0.077277005
000280 7d 61 72 3d b7 b9 a2 3d d5 38 74 bd f5 1d 8a bd
       0.059175003 0.079455785 -0.05962451 -0.06743995
000290 17 fb cc 3d b6 01 65 3e d5 45 80 3e 02 db d7 bd
       0.10008829 0.22363934 0.25053278 -0.10539819
0002a0 c3 d7 ac 3c a9 e9 79 be ac 58 a2 bd 16 d5 1a 3d
       0.021098977 -0.2440554 -0.07927069 0.03780087
0002b0 04 93 8c 3e 5c 21 95 be 79 b1 01 be 19 7a e1 bd
       0.27455914 -0.29127014 -0.12665357 -0.110096164
0002c0 e2 e9 17 3d c5 18 84 bd 5f ed 3c 39 35 49 e3 3e
       0.037088282 -0.06450037 0.00018017505 0.4439179
0002d0 ef 10 8e bd 92 05 f4 bd 77 3b 9b bd cf 2a 43 bd
       -0.069368236 -0.11915125 -0.075797014 -0.047648247
0002e0 e9 6d 38 3c bc 54 53 bd 5e 10 21 bd d9 0d 0e 3d
       0.011256673 -0.05159448 -0.03932225 0.034681175
0002f0 84 2e 09 bd a1 46 23 be 7c 3a 9f 3c 2d ef 78 be
       -0.033491626 -0.15944912 0.019437067 -0.24309988
000300 f4 c8 58 be d0 74 e8 bc 85 c6 01 be f0 36 e9 bd
       -0.21170408 -0.028376013 -0.12673385 -0.113874316
000310 02 94 66 3d 42 d4 8e bd 8c 50 47 3c eb 60 99 bd
       0.056293495 -0.06974079 0.0121652 -0.07489189

l2.weight f4 [10, 200]
000000 dd 95 62 bd 68 5d 47 bc 65 03 d0 3c 5c 10 ce 3b
       -0.055318702 -0.012168266 0.025392244 0.0062885713
000010 fd 67 92 3d 75 d3 0b be 70 d5 30 be ff 85 25 3d
       0.071487404 -0.13654883 -0.1726892 0.04041099
000020 75 fe db bb 36 23 f3 bc d8 28 11 3d fe f3 c9 3d
       -0.0067136833 -0.029679876 0.035439342 0.09860991
000030 a1 f0 ae be 8f 14 db bd 81 85 c3 bc b9 ab 96 bb
       -0.3416796 -0.106972806 -0.02386737 -0.0045981077
000040 87 ea e3 bd 3a 87 f1 3b df 27 17 be 94 a1 16 3e
       -0.11128717 0.0073708566 -0.14761303 0.14710075
000050 9e c7 90 3d 30 00 3c be 6a e3 3a 3e 99 74 8e bb
       0.07069324 -0.18359447 0.18250814 -0.0043473956
000060 12 47 3e be 9e e0 4f be 36 a1 6d bc bb 84 e3 bc
       -0.18581799 -0.20300528 -0.014503768 -0.027773252
000070 c6 42 46 3d 8e 62 14 bf 37 db 00 bd d4 4b c5 bd
       0.048403524 -0.5796288 -0.03145906 -0.09633604
000080 43 25 c0 bc fc 46 82 3d bb 6b 53 bd 75 fc 01 be
       -0.023455268 0.063611954 -0.05161641 -0.12693961
000090 c5 02 3e 3d e7 da 8d 3c 34 99 d0 bb 85 05 69 bb
       0.04638936 0.017316295 -0.0063659195 -0.0035556268
0000a0 69 b8 99 be b6 8c 04 be 0b b5 23 3d 31 a3 f1 bd
       -0.30023506 -0.12944302 0.039967578 -0.117987044
0000b0 fd 12 2e 3c 19 58 69 bd e4 e1 22 3b 48 b4 fd 3b
       0.010624644 -0.056968782 0.002485388 0.0077424385
0000c0 dd 5d 92 bd c1 5a c6 3c 34 41 91 bb 53 e0 39 bd
       -0.07146809 0.024213197 -0.0044328216 -0.045379948
0000d0 0d e4 ad bc 62 23 65 be b9 de 37 bc 9c 45 ba bc
       -0.021226907 -0.22376779 -0.011222535 -0.02273827
0000e0 72 18 87 bd 80 a4 0b 3c 79 ab c2 bd 21 06 8a 3a
       -0.065964594 0.008523107 -0.09505362 0.0010530391
0000f0 98 45 f6 bb 56 37 ea 3b ac 9a 96 be 73 11 19 3d
       -0.0075156204 0.00714771 -0.2941488 0.037370156
000100 e4 3e 31 3e 65 5d 5a bc 5c e8 93 bd 6d 15 da be
       0.17309147 -0.013327931 -0.072220534 -0.42594472
000110 bc 64 bf 3c f3 f4 e1 3b 90 27 17 bf 17 02 39 be
       0.023363464 0.0068956553 -0.5904474 -0.18067203
000120 52 66 6a bc c1 21 3c bb b8 60 6f bd 3f 95 6f bd
       -0.014306622 -0.0028706642 -0.058441848 -0.05849194
000130 8d a6 0d bc cd 6f ce 3d 94 51 30 3b 2e e3 23 be
       -0.008645666 0.10079918 0.0026904093 -0.16004631
000140 b1 2f eb be 38 35 5e 3e b1 2a 82 bc 92 30 cb bf
       -0.45934823 0.21699989 -0.015889497 -1.5874197
000150 fb d3 b8 3b 32 16 b7 3e a8 f7 37 bd 8e 0b 6f be
       0.0056405044 0.3575912 -0.044913918 -0.23344252
000160 3f 40 cf 3e 49 15 80 bc 95 67 59 bf 53 4b 44 3c
       0.40478703 -0.01563515 -0.8492368 0.011980849
000170 e1 16 c1 3c 84 62 dc 3c 1e 16 87 bc 7d aa 83 bb
       0.02357048 0.026902445 -0.016490038 -0.0040181265
000180 57 b1 9b bd d8 d2 b4 3d 16 c5 31 3b 06 e4 90 bd
       -0.07602184 0.08829278 0.002712553 -0.07074742
000190 26 dd 30 3e 5d b3 9d 3c 11 8f 13 bc cf 02 5c bd
       0.17271861 0.019250566 -0.009006278 -0.053713616
0001a0 49 e6 27 3c 63 f9 71 bc 43 6b da bc 32 5f 4d 3d
       0.010247775 -0.014768931 -0.026662474 0.050139613
0001b0 01 0d d6 3d 88 b8 81 be 1a 68 1a bd 9c a0 91 bd
       0.10451699 -0.253361 -0.037696935 -0.07110712
0001c0 b7 93 87 3d 3e 75 2c be 48 e7 33 bd 44 f8 a5 3d
       0.06619971 -0.168416 -0.04392174 0.081039935
0001d0 9f 9a 9a bf b0 5e cb be 87 e6 3f 3d b8 21 bf bd
       -1.2078437 -0.39720678 0.046850707 -0.09332603
0001e0 5f d8 68 bd 6a 7d 88 bd 36 d7 51 bf be 89 d5 3d
       -0.056846973 -0.06664546 -0.8196901 0.10426663
0001f0 c1 1f 29 3e ef 20 02 bb cd 00 3e be e4 5a f4 bd
       0.1651602 -0.0019856056 -0.18554993 -0.119313985
000200 f3 19 14 bd f8 50 fc bc 0e 27 98 3d 8f 5f 87 bd
       -0.03615756 -0.030800328 0.07429324 -0.06610023
000210 7a a7 93 be 5c e1 b7 bc 32 3f 98 3d 61 29 d1 bd
       -0.28838712 -0.022446327 0.074339285 -0.102129705
000220 ed e6 23 bf d3 54 89 be 16 cb 7d bd 18 52 ce bc
       -0.6402424 -0.26822528 -0.061961256 -0.02518563
000230 02 40 5c 3d ce 91 94 ba ca 5c 12 bd 3e 4f 1b bc
       0.05377198 -0.0011334957 -0.03573302 -0.009479342
000240 e9 42 f6 be e1 88 c3 be 41 72 42 be 18 54 37 3c
       -0.48097923 -0.38190368 -0.18988897 0.011189483
000250 11 5f cd bc 3c 64 bf bd 47 9f 50 3e e8 f5 f0 3c
       -0.025069745 -0.0934529 0.2037326 0.029414132
000260 49 f5 45 bd 95 aa 86 bc 12 8d 80 bd 68 10 4d 3e
       -0.048329625 -0.016438762 -0.06276907 0.2002579
000270 c9 46 c6 3c 95 36 ab bc d6 f4 83 be 11 e4 af bd
       0.024203675 -0.02090005 -0.25772732 -0.08588422
000280 67 04 8e bd dc 8e 5e be ea a7 ad bc aa 58 b6 bc
       -0.069344334 -0.21734184 -0.021198232 -0.022259075
000290 6c fa 74 3e 21 ec 2e bf e7 c8 82 3e 66 4f 87 3e
       0.23923653 -0.68329054 0.255439 0.26427764
0002a0 69 74 9e 3e 8c a6 b9 be 48 9b 04 be df 5e 55 bd
       0.3094819 -0.36259878 -0.1294986 -0.05209243
0002b0 65 08 1f bf 23 ab 61 be 35 f5 61 bb 62 0b 68 bd
       -0.62122184 -0.2203794 -0.003447843 -0.05665148
0002c0 fe 17 6a bb 50 b7 1d 3d ae 5f b2 bd 26 f7 22 be
       -0.0035719867 0.0385049 -0.08709656 -0.15914592
0002d0 f9 0c a4 3b fa b5 98 bd 03 4e a1 bc fd ee 8f 3e
       0.0050064293 -0.07456584 -0.01969052 0.2811202
0002e0 db 90 66 3d 4b 95 be bc 09 99 44 3d 14 2e 47 3c
       0.05629049 -0.023264548 0.04799751 0.012156982
0002f0 8a 2f 94 be c0 b5 af 3d d6 ac 4a 3d 4c c7 ea 3e
       -0.2894252 0.08579588 0.049481235 0.45855176
000300 d1 dc c0 be 8f e8 13 3c f0 a3 8e be 39 a3 83 bc
       -0.3766847 0.009027614 -0.2785945 -0.016069042
000310 83 43 a7 bd 4f 69 b5 bd 2e cb 7f bc b5 74 ee 3c
       -0.08167174 -0.08857977 -0.015612407 0.029108385
000320 1b 43 86 be 57 46 fe bd be f5 ea bd 73 55 a9 bc
       -0.26223072 -0.1241576 -0.11472653 -0.020670628
000330 4c 3d 80 bb 4f de ff 3c fb ea e7 bd 31 97 83 3d
       -0.003913557 0.031233935 -0.11324116 0.06425322
000340 ac b2 a0 bc d5 31 38 3d 8e 5f 13 3d 87 79 8e 3e
       -0.019616447 0.0449694 0.0359798 0.27827093
000350 85 19 81 3d 56 70 75 3e 23 68 01 bd bc 1f 27 3d
       0.063036956 0.23968634 -0.031593453 0.04080175
000360 75 f2 4b 3e 8d 21 0a bc 01 fc 27 3e 85 d9 86 bd
       0.19916709 -0.008430851 0.16404726 -0.06584457
000370 bf 9b ee be fe 53 05 3f 98 aa 80 be 4c 40 9c bd
       -0.466032 0.52081287 -0.25130153 -0.07629451
000380 cd 3b bc be a9 52 43 be d7 0b 7f 3c 60 8b 9c 3d
       -0.36764374 -0.19074501 0.015566788 0.07643771
000390 84 fb a8 3d 86 65 e2 bd 57 f2 73 3d 8b 76 b8 bd
       0.08251098 -0.1105452 0.059557285 -0.09006985
0003a0 28 0e 59 bd 51 a1 01 3c f8 35 82 3c da a8 b3 3b
       -0.052992016 0.007911996 0.015894875 0.005482775
0003b0 84 c7 3b 3d 43 ec 96 bc 12 04 74 bd 79 a9 1c bc
       0.04584457 -0.018423205 -0.059574194 -0.00956189
0003c0 ee 49 5b bd 3f 84 3c bd 4a 34 8b be 83 cb b7 bd
       -0.0535373 -0.046024557 -0.2718833 -0.08974364
0003d0 49 67 73 3d c4 e1 01 bd ff 16 dc 3d c3 dd a0 3d
       0.059424672 -0.031709448 0.10746574 0.07854798
0003e0 47 57 8e 3d c3 3a ec 3d 25 cc 2e bd 3e 58 f2 3d
       0.069502406 0.115346454 -0.042675156 0.11833237
0003f0 6f f9 57 bd 35 f5 19 3c 7c de 6d 3c 79 27 b8 bd
       -0.052728113 0.009396841 0.014518376 -0.08991904

l2.bias f4 [10]
000000 b2 b3 24 be f1 e8 10 3d 53 d0 36 3c f2 f2 a1 3d
       -0.16084173 0.0353784 0.011158067 0.07907666
000010 a1 2e 70 bc f3 ca 51 be f4 4f 27 be 55 04 b4 3e
       -0.014659555 -0.20487575 -0.16339093 0.35159555
000020 1a 92 35 3e 0e 86 ad 3c
       0.17731515 0.021182086
