pytorch-project/models/model.pt (torch, 89920 bytes, 4 tensors)

l1.weight f4 [200, 99]
-0.12959142 -0.0059841527 -0.019917889 -0.12040137 0.077673405 -0.061286867 -0.15828805 0.079708286
0.0067565097 -0.053803846 -0.012439232 -0.016111465 0.013006646 0.054264516 -0.006251313 -0.13149352
0.0076407115 -0.10088495 0.017032538 0.15094613 -0.037447304 -0.097604126 0.12277971 0.007833388
-0.022610093 0.065064795 -0.008520331 -0.09374216 -0.034673385 -0.021220962 -0.03206971 0.036695685
-0.040450655 -0.12871382 0.043445352 -0.0718214 -0.06317053 0.05371601 -0.029743064 -0.12652798
-0.11032689 -0.016805789 -0.04183829 -0.019061722 -0.048941378 0.019394636 0.035391618 -0.15967256
-0.08363015 -0.011203345 -0.037849315 -0.09132228 -0.13274553 -0.06840074 -0.1095138 0.03092261
-0.057108503 0.015605194 -0.12251212 0.0001555847 -0.15036823 -0.10073215 -0.059703406 0.027379915
-0.04952793 0.009709025 0.006883535 -0.085300155 0.014644009 -0.06553038 -0.050021045 0.0011716594
-0.11725147 -0.10340022 -0.014029676 -0.07165599 0.018630838 -0.12346133 -0.06816474 -0.1322154
-0.051571812 0.05681135 -0.107624345 -0.14231035 -0.045186672 -0.12785304 -0.07994914 -0.007309699
-0.10381725 -0.0014844013 0.004659776 -0.02866037 -0.10181495 0.031120745 -0.086792655 -0.11713519
-0.018364575 0.010802022 -0.028367817 -0.0193293 -0.08083383 -0.08838271 0.010478616 -0.039901488
-0.13913423 0.03205385 0.009343761 -0.13934037 -0.12479797 -0.06785163 -0.14384621 0.012358112
-0.09838228 0.032429006 -0.048619207 -0.06893739 -0.0009399721 -0.014894341 -0.10737734 0.01303389
-0.14574559 -0.09406505 -0.007749713 -0.08476411 0.050677944 -0.03913092 -0.020522105 0.06818076
-0.005365141 0.031410422 -0.05390566 -0.03897001 -0.07327796 -0.04924277 0.032363284 -0.077633195
-0.009206764 0.042710632 -0.1368817 -0.098870166 -0.08435977 -0.049174983 -0.11292389 0.013552184
-0.043136403 -0.1834781 -0.10852074 -0.14495504 -0.053955734 -0.14464077 -0.11326596 -0.14810465
-0.04529426 -0.026693847 -0.0489725 -0.043798532 -0.12461839 -0.039397586 -0.087244526 -0.048277356
-0.107693896 -0.113671444 0.022576585 -0.101705484 -0.043187317 -0.08974193 -0.16898441 -0.022329636
0.038034525 0.035611026 -0.028829334 -0.10874622 0.01717253 -0.060279973 -0.07496992 -0.14027411
-0.12097242 -0.072449826 0.013909448 -0.043539815 -0.09100687 0.0042069233 -0.079789296 0.0020167106
-0.14925686 -0.056179926 -0.089157805 -0.14694403 -0.031876143 0.0026713507 -0.028585505 -0.0423138
-0.005187937 -0.071972944 -0.05885914 -0.09162661 -0.024504976 -0.089221776 -0.024321398 -0.100493595
0.019126767 0.026239337 0.01996431 -0.05410417 -0.015522551 0.09722837 -0.04303698 -0.06581944
-0.019090513 0.059176847 0.02946856 0.02955728 -0.08182977 0.016785178 0.048375774 0.009983574
-0.0055470997 0.08031816 0.057606094 0.07869145 0.015790481 0.035079505 0.037943847 0.061880287
0.006409527 -0.05140003 -0.026530907 -0.06526761 0.06543339 -0.039704897 0.015243143 -0.046505917
-0.08271543 -0.02664203 -0.0048211003 -0.037314836 -0.0033822078 -0.02095752 0.048412677 0.089471914
-0.042363815 -0.09983234 0.09082182 -0.08224969 0.02537158 -0.073189855 0.051654287 -0.07545222
-0.017346453 0.009916409 -0.039923873 -0.00915745 -0.0014196987 -0.005228226 0.06948102 -0.0069769826
00000000: 9db3 04be b616 c4bb d72a a3bc fe94 f6bd
00000010: 3c13 9f3d f007 7bbd 4316 22be 193e a33d
00000020: b665 dd3b 6c61 5cbd eccd 4bbc 31fc 83bc
00000030: d419 553c 7844 5e3d d0d7 ccbb 3da6 06be
00000040: ef5e fa3b c59c cebd d287 8b3c 9f91 1a3e
00000050: 5862 19bd ace4 c7bd ee73 fb3d 9c57 003c
00000060: cd38 b9bc b140 853d dc98 0bbc e4fb bfbd
00000070: ae05 0ebd 95d7 adbc 875b 03bd 374e 163d
00000080: 96af 25bd 8ecd 03be c1f3 313d 1917 93bd
00000090: 8d5f 81bd 5205 5c3d baa7 f3bc 8d90 01be
000000a0: 11f3 e1bd 4bac 89bc a05e 2bbd 5427 9cbc
000000b0: c176 48bd 80e1 9e3c cdf6 103d 3481 23be
000000c0: 4946 abbd 3c8e 37bc e207 1bbd 2d07 bbbd
000000d0: 72ee 07be b015 8cbd c548 e0bd 6a51 fd3c
000000e0: 9bea 69bd edac 7f3c a2e7 fabd 7324 2339
000000f0: 21fa 19be a84c cebd 8f8b 74bd d84b e03c
00000100: ccdd 4abd 9a12 1f3c 478f e13b d9b1 aebd
00000110: 6ded 6f3c cb34 86bd dee2 4cbd 5e92 993a
00000120: 8a21 f0bd 7fc3 d3bd badc 65bc 60c0 92bd
00000130: b39f 983c 4bd9 fcbd f599 8bbd 7963 07be
00000140: f73c 53bd 05b3 683d 276a dcbd ceb9 11be
00000150: a915 39bd e8eb 02be 60bc a3bd 3386 efbb
00000160: 239e d4bd 3e90 c2ba 09b1 983b 27c9 eabc
00000170: 5b84 d0bd eff0 fe3c 59c0 b1bd 93e4 efbd
00000180: 4e71 96bc f7fa 303c a063 e8bc 7b58 9ebc
00000190: 358c a5bd ff01 b5bd 80ae 2b3c be6f 23bd
000001a0: 3479 0ebe e64a 033d 9316 193c 3eaf 0ebe
000001b0: 1496 ffbd ccf5 8abd 6c4c 13be ae79 4a3c
000001c0: a67c c9bd 47d4 043d ef24 47bd 0c2f 8dbd
000001d0: 7668 76ba 6507 74bc a7e8 dbbd 198c 553c
000001e0: 553e 15be 2da5 c0bd 4ef1 fdbb ce98 adbd
000001f0: ad93 4f3d be47 20bd f91d a8bc 5ba2 8b3d
00000200: 11ce afbb 37a8 003d 2ecc 5cbd 049f 1fbd
00000210: c112 96bd c9b2 49bd 5d8f 043d 27fe 9ebd
00000220: f8d7 16bc 58f1 2e3d b72a 0cbe 717c cabd
00000230: d1c4 acbd b56b 49bd a444 e7bd fb09 5e3c
00000240: ccaf 30bd afe1 3bbe 1f40 debd 186f 14be
00000250: b000 5dbd b61c 14be fcf7 e7bd bfa8 17be
00000260: 7986 39bd 0ead dabc 6397 48bd 1766 33bd
00000270: ed37 ffbd 5d5f 21bd 42ad b2bd 7abe 45bd
00000280: 9e8e dcbd 93cc e8bd 88f2 b83c f74a d0bd
00000290: 2fe5 30bd 9eca b7bd 400a 2dbe a4ec b6bc
000002a0: 17ca 1b3d dedc 113d 7f2b ecbc 57b6 debd
000002b0: 68ad 8c3c 22e8 76bd d489 99bd 04a4 0fbe
000002c0: 63c0 f7bd 9360 94bd 74e4 633c ce56 32bd
000002d0: cf61 babd 3bda 893b 9268 a3bd ca2a 043b
000002e0: cad6 18be ec1c 66bd 5e98 b6bd 7f78 16be
000002f0: 8f90 02bd d411 2f3b 262c eabc 3c51 2dbd
00000300: 92ff a9bb 8d66 93bd 4816 71bd bba6 bbbd
00000310: a9be c8bc e8b9 b6bd ab3d c7bc 96cf cdbd
00000320: bdaf 9c3c e1f3 d63c 318c a33c 569c 5dbd
00000330: 4c52 7ebc ab1f c73d 8b47 30bd 58cc 86bd
00000340: b563 9cbc 6c63 723d 0d68 f13c 1c22 f23c
00000350: 5e96 a7bd 1281 893c ad25 463d 2592 233c
00000360: 72c4 b5bb d97d a43d 5ef4 6b3d fc28 a13d
00000370: 0a5b 813c 87af 0f3d 026b 1b3d 2f76 7d3d
00000380: 0207 d23b d688 52bd 5857 d9bc 06ab 85bd
00000390: f101 863d 9aa1 22bd 60be 793c fd7c 3ebd
000003a0: b566 a9bd 6340 dabc 52fa 9dbb 71d7 18bd
000003b0: 08a8 5dbb 1baf abbc 5f4c 463d 0d3d b73d
000003c0: ae85 2dbd e674 ccbd ca00 ba3d 8772 a8bd
000003d0: 0fd8 cf3c 90e4 95bd 7293 533d b286 9abd
000003e0: 261a 8ebc 6f78 223c 3787 23bd 2109 16bc
000003f0: 2f15 baba 8a51 abbb 114c 8e3d 2c9f e4bb

l1.bias f4 [200]
-0.12830217 -0.1239383 0.0022966948 0.0122981705 -0.08412236 -0.053627744 0.07836982 -0.062181696
-0.018028226 -0.05679672 0.027781568 -0.07110391 -0.14683303 -0.092670314 -0.017676696 -0.01695814
0.111224964 -0.3023273 -0.09874575 0.0029013127 -0.06556228 0.21331179 -0.082694165 -0.08778517
-0.061439324 -0.0856246 -0.051202558 -0.029234413 -0.049798325 0.3583905 0.02032955 -0.05137223
-0.044626806 -0.10964465 0.082766 0.038507625 0.13697392 -0.014880198 -0.18451725 0.29192236
-0.14559434 0.0023533294 -0.027855255 -0.10829425 0.21425454 -0.23812091 -0.0042019924 -0.14503278
-0.023307554 -0.14018762 -0.052202895 -0.061251048 -0.019340528 -0.14389144 -0.018996742 0.027487736
-0.044064175 -0.023410395 0.019968899 0.10364528 -0.010656362 0.20841952 -0.095476076 0.17095092
0.037237726 -0.024639308 0.10390649 0.22405224 -0.038198873 -0.12268397 -0.084068105 0.19611268
-0.1752022 -0.0071970117 -0.0017326899 -0.15672809 -0.09338406 -0.00899925 -0.037763402 -0.035242345
0.035965465 -0.17083459 -0.045851335 0.19127266 0.37224615 0.122758314 -0.06463204 -0.0028973853
-0.01819327 0.25216508 -0.02599595 -0.15849538 -0.08091751 0.31334123 -0.00288001 -0.10557612
0.02723112 -0.083083674 0.1805528 -0.07875145 -0.0758344 0.01140676 -0.02442769 -0.16530801
-0.062405687 -0.122480504 -0.09773406 -0.009342807 0.18629041 -0.004484807 -0.14595555 0.023971854
-0.06248861 0.23906952 -0.28115004 -0.012129857 -0.010867975 -0.1597741 -0.022756297 -0.083052605
-0.13981313 -0.030256271 -0.071952306 -0.08659363 0.11984739 0.020878276 0.042847015 -0.041674957
-0.06640307 -0.023322687 -0.1331189 0.011929993 0.29061505 -0.14040309 -0.0157162 0.3486008
-0.116105504 -0.07835766 0.15047069 -0.22337161 -0.3439786 -0.029375821 -0.091748685 -0.031867523
0.12588368 0.33291507 0.00793342 0.039028782 -0.018408626 -0.2413921 -0.113129176 -0.07062247
-0.056538254 -0.14768425 -0.073331915 0.18739147 -0.09203858 0.16892226 -0.23229548 0.030447742
-0.04346612 -0.3388126 -0.12507285 -0.041280847 0.15854026 -0.112267934 -0.07927175 -0.008599718
-0.047671795 0.28269497 -0.07176033 0.018006412 -0.13826981 -0.049801767 -0.092482075 -0.027504075
-0.07695203 0.46960512 0.050910648 -0.38560295 -0.09683306 -0.087669276 -0.07182504 -0.025476499
0.01833568 -0.07296753 -0.0749063 -0.06814691 -0.123516984 0.009813517 -0.17475371 -0.067408405
-0.14195582 -0.08602041 0.024777222 -0.085951805 -0.09232347 0.112341374 -0.097540855 -0.15585028
00000000: a561 03be 5dd3 fdbd 2584 163b 447e 493c
00000010: 5848 acbd c4a8 5bbd 5b80 a03d 3cb2 7ebd
00000020: eeaf 93bc ada3 68bd 2c96 e33c ed9e 91bd
00000030: 665b 16be efc9 bdbd b8ce 90bc cceb 8abc
00000040: eac9 e33d a5ca 9abe 363b cabd f323 3e3b
00000050: 8445 86bd 686e 5a3e 8f5b a9bd b6c8 b3bd
00000060: cda7 7bbd f35b afbd c6b9 51bd 027d efbc
00000070: 54f9 4bbd f67e b73e 288a a63c b06b 52bd
00000080: 99ca 36bd 608d e0bd 3881 a93d 2cba 1d3d
00000090: e442 0c3e 13cc 73bc 17f2 3cbe d976 953e
000000a0: af16 15be 513a 1a3b b430 e4bc 60c9 ddbd
000000b0: 8b65 5b3e f8d5 73be deb0 89bb 7983 14be
000000c0: 7cef bebc 588d 0fbe b4d2 55bd 61e2 7abd
000000d0: 0770 9ebc 4758 13be 0e9f 9bbc f62d e13c
000000e0: a37c 34bd 28c7 bfbc d195 a33c fa43 d43d
000000f0: 0698 2ebc ed6b 553e f688 c3bd c20d 2f3e
00000100: 9686 183d 60d8 c9bc edcc d43d f36d 653e
00000110: 6c76 1cbd bc41 fbbd e62b acbd c3d1 483e
00000120: 3568 33be e9d4 ebbb 6d1b e3ba 547d 20be
00000130: 2440 bfbd 9771 13bc ccad 1abd 475a 10bd
00000140: 8650 133d 43ef 2ebe 9cce 3bbd fbdc 433e
00000150: 0c97 be3e b668 fb3d ce5d 84bd 0fe2 3dbb
00000160: 0d0a 95bc c81b 813e 75f5 d4bc 9d4c 22be
00000170: 14b8 a5bd 436e a03e 8dbe 3cbb 4b38 d8bd
00000180: cc13 df3c c627 aabd d5e2 383e 7148 a1bd
00000190: 114f 9bbd 6be3 3a3c 941c c8bc 8146 29be
000001a0: 1b9d 7fbd 0fd7 fabd cb28 c8bd 9312 19bc
000001b0: eac2 3e3e 4af5 92bb 5f75 15be 9f60 c43c
000001c0: 0ff4 7fbd a4ce 743e e6f2 8fbe 4fbc 46bc
000001d0: 970f 32bc d29b 23be 6a6b babc 7c17 aabd
000001e0: 2c2b 0fbe 00dc f7bc bb5b 93bd 0058 b1bd
000001f0: 8c72 f53d eb08 ab3c 5a80 2f3d 5cb3 2abd
00000200: 55fe 87bd 380f bfbc 5250 08be 0476 433c
00000210: 7fcb 943e d4c5 0fbe 43bf 80bc ce7b b23e
00000220: b9c8 edbd fb79 a0bd fd14 1a3e 87bb 64be
00000230: f71d b0be 90a5 f0bc bce6 bbbd 8587 02bd
00000240: a7e7 003e d873 aa3e 2dfb 013c a5dc 1f3d
00000250: b0cd 96bc 7e2f 77be 45b0 e7bd 83a2 90bd
00000260: a894 67bd 8a3a 17be 0b2f 96bd 8de3 3f3e
00000270: b97e bcbd f5f9 2c3e dede 6dbe 8b6d f93c
00000280: 8809 32bd d878 adbe 1913 00be 1b16 29bd
00000290: 6158 223e bbec e5bd 3a59 a2bd d5e5 0cbc
000002a0: 8043 43bd 65bd 903e 14f7 92bd 2f82 933c
000002b0: 9a96 0dbe f0fc 4bbd 3e67 bdbd 3a50 e1bc
000002c0: 0799 9dbd 1570 f03e af87 503d c06d c5be
000002d0: 6950 c6bd f38b b3bd 0219 93bd 17b4 d0bc
000002e0: b534 963c 0070 95bd 7968 99bd 9b90 8bbd
000002f0: 79f6 fcbd e0c8 203c a3f2 32be 6b0d 8abd
00000300: de5c 11be 782b b0bd 9af9 ca3c 8007 b0bd
00000310: 1614 bdbd 3c13 e63d 80c3 c7bd 3797 1fbe

l2.weight f4 [10, 200]
-0.06964361 -0.016406894 -0.026788538 -0.037780568 -0.06631289 0.052233472 0.12411637 0.12532127
0.0143139195 0.024610246 -0.11646792 -0.015401175 0.04065517 0.045568198 0.028587526 0.1125069
-0.5729058 0.19708881 0.066996455 -0.03946773 -0.0026586037 -0.10000124 0.020411149 -0.018477099
0.0063271443 0.18759057 -0.037225734 -0.2159528 -0.12621924 -0.95823693 0.06853009 -0.0022834614
0.014966665 -0.014088029 0.031112561 0.099627174 -0.07632265 -0.21683997 -0.42648292 -0.7766763
-0.020865848 -0.048799906 0.008319452 0.1666611 0.32443345 0.13449782 -0.10999037 -0.053707194
-0.04612059 -0.053323418 -0.119569264 0.00208666 0.009497097 0.01768941 0.19440791 -0.112359926
0.3399116 0.009733738 0.03296302 -0.35400197 -0.08899588 -0.11088867 -0.06401352 0.040723674
-0.15310135 0.09182195 -1.0103126 -0.81246555 -0.11610303 -0.0203085 -0.08266409 -0.45428735
0.051209938 -0.08747939 0.06937617 -0.3948216 0.028687298 -0.014672 0.0069240616 -0.021613937
-0.053539313 -0.10402307 0.058986954 0.09345058 0.1192096 -0.2914454 0.0050210804 0.0010322607
0.059769638 0.082225524 -0.11119688 -0.11514102 -0.033541296 -0.72859406 -0.44972867 -0.053067878
-0.025560288 0.24028206 -0.43258423 0.0004431657 -0.019696057 -0.023049472 0.008247439 0.011323267
-0.061411764 -0.050019715 -0.02053418 0.0024978162 -0.031270437 0.11456264 -0.06892436 -0.03572677
-0.011646867 0.19058597 0.39088127 -0.07834418 -0.08476643 -0.013838468 -0.094310515 -0.094873294
-0.053467516 -1.5884136 0.054237086 -0.043444037 -0.14529258 0.33564717 -0.06664112 0.045278825
-0.07250667 0.008229805 -0.06474606 0.07468158 -0.5130235 -0.037112378 -0.059483536 -0.06069756
-0.11127682 -0.08914473 0.049430642 0.053262524 0.039293543 0.25368193 -0.0035180475 -0.07854047
-0.62553906 -0.14984544 -0.062278774 0.040305365 -0.009617001 -0.15367271 0.24261336 -0.11088492
-0.04055997 -0.06987388 -0.038729653 -0.119870834 0.0058411113 0.05912438 -0.3761099 -0.09466725
-0.23559573 0.24562262 0.062281996 -0.014816981 -1.415376 -0.053444713 0.0030646576 -0.12195105
-0.1112368 -0.08260331 -0.008137296 -0.10915551 -0.11767964 -0.02535268 -0.053027038 -0.057609417
-0.075758494 -0.48768905 -0.5705289 0.18092725 -0.1095581 -0.042827256 0.0027191378 -0.00031612354
0.03242443 -0.14527607 0.065089576 -0.012333208 -0.024714906 -0.06438695 -0.43361473 -0.020838521
0.045792885 -0.31630018 0.007248644 0.0043642893 0.0145622315 -0.14243151 -0.052929413 0.16854726
-0.04392531 0.040153693 -0.059671517 -0.12207856 -0.008484499 0.061436974 -0.16576898 0.22145292
-0.038817737 0.023562543 -0.037839834 0.027080843 -0.010737024 0.032693412 0.054312885 -0.024048455
0.06504538 0.27822042 0.053250726 0.006394604 -0.10450565 -0.215315 -0.01296444 -0.008531091
0.026406562 -0.39686826 0.03391096 -0.50884324 0.32769743 -0.02871836 0.034045342 0.015502908
-0.025200864 -0.11354223 0.004789779 -0.020016525 0.02148382 0.15631133 0.5856544 -0.16002426
-0.018946597 -0.122644864 -0.015341734 -0.13672195 -0.2843189 0.1573839 0.12800287 -0.02843729
0.043224815 -0.041605566 -0.012400425 -0.11624209 -0.023561342 -0.118839525 -0.14866924 -0.018415336
00000000: 4fa1 8ebd c067 86bc a373 dbbc ccbf 1abd
00000010: 0dcf 87bd c4f2 553d b930 fe3d 3854 003e
00000020: ee84 6a3c 6d9b c93c bc86 eebd 3655 7cbc
00000030: 0986 263d b8a5 3a3d 6330 ea3c 056a e63d
00000040: f4a9 12bf a6d1 493e 7035 893d eaa8 21bd
00000050: f83b 2ebb 73cd ccbd 4835 a73c 495d 97bc
00000060: ef53 cf3b be17 403e 037a 18bd bb22 5dbe
00000070: 9e3f 01be 044f 75bf 8159 8c3d 20a6 15bb
00000080: be36 753c 7ad1 66bc c5df fe3c 5509 cc3d
00000090: 0d4f 9cbd 4c0b 5ebe f85b dabe 42d4 46bf
000000a0: dbee aabc 69e2 47bd 504e 083c 35a9 2a3e
000000b0: 241c a63e ccb9 093e a242 e1bd 13fc 5bbd
000000c0: f2e8 3cbd a869 5abd bbe0 f4bd 58c0 083b
000000d0: b699 1b3c 62e9 903c de12 473e f61c e6bd
000000e0: e508 ae3e 427a 1f3c 3b04 073d bf3f b5be
000000f0: 7943 b6bd 9919 e3bd 8519 83bd decd 263d
00000100: 9ac6 1cbe 260d bc3d ec51 81bf befd 4fbf
00000110: 6dc7 edbd 035e a6bc ca4b a9bd 5a98 e8be
00000120: 83c1 513d 6528 b3bd 1815 8e3d 0f26 cabe
00000130: a001 eb3c d462 70bc 3de3 e23b b60f b1bc
00000140: 0a4c 5bbd 0c0a d5bd 4e9c 713d 0563 bf3d
00000150: 2a24 f43d 5538 95be e087 a43b ec4c 873a
00000160: 02d1 743d db65 a83d 31bb e3bd 0ecf ebbd
00000170: 9962 09bd 2485 3abf d642 e6be b45d 59bd
00000180: cf63 d1bc 800c 763e ae7b ddbe b258 e839
00000190: a059 a1bc 3fd2 bcbc 4420 073c 3985 393c
000001a0: e78a 7bbd 79e1 4cbd 4c37 a8bc 67b2 233b
000001b0: 6e15 00bd d19f ea3d 3728 8dbd 3c56 12bd
000001c0: 80d2 3ebc f828 433e 9721 c83e ea72 a0bd
000001d0: 069a adbd beba 62bc df25 c1bd ee4c c2bd
000001e0: c100 5bbd 2351 cbbf b527 5e3d 60f2 31bd
000001f0: 94c7 14be f2d9 ab3e 247b 88bd 4a76 393d
00000200: 617e 94bd 4ed6 063c 9599 84bd a8f2 983d
00000210: 8255 03bf 2603 18bd 02a5 73bd 019e 78bd
00000220: 1ae5 e3bd 8391 b6bd c977 4a3d ce29 5a3d
00000230: 44f2 203d 99e2 813e 0b8f 66bb d3d9 a0bd
00000240: 5423 20bf 1571 19be 0718 7fbd 3d17 253d
00000250: a090 1dbc 615c 1dbe a36f 783e a217 e3bd
00000260: 3622 26bd 091a 8fbd fca2 1ebd d77e f5bd
00000270: cb66 bf3b 682c 723d 7a91 c0be e7e0 c1bd
00000280: 0240 71be 7f84 7b3e 681b 7f3d ecc2 72bc
00000290: 0a2b b5bf d8e8 5abd 6cd8 483b 79c1 f9bd
000002a0: 1fd0 e3bd ed2b a9bd 4b52 05bc ed8c dfbd
000002b0: 0602 f1bd 6cb0 cfbc e132 59bd daf7 6bbd
000002c0: 4527 9bbd 61b2 f9be 2f0e 12bf fe44 393e
000002d0: ff5f e0bd a26b 2fbd 9033 323b 62bd a5b9
000002e0: 7bcf 043d 40c3 14be af4d 853d 3911 4abc
000002f0: ea76 cabc 4edd 83bd c002 debe 8cb5 aabc
00000300: 5291 3b3d 19f2 a1be 0886 ed3b 5002 8f3b
00000310: 6d96 6e3c 91d9 11be 83cc 58bd a797 2c3e
00000320: 07eb 33bd 3378 243d 1f6a 74bd 5304 fabd
00000330: 9102 0bbc 56a5 7b3d 58bf 29be 8ec4 623e
00000340: 59ff 1ebd 3c06 c13c f1fd 1abd a5d8 dd3c
00000350: 58ea 2fbc 87e9 053d 3077 5e3d 4401 c5bc
00000360: 8336 853d e872 8e3e 6f1d 5a3d d489 d13b
00000370: 0f07 d6bd 897b 5cbe cd68 54bc fdc5 0bbc
00000380: 9352 d83c 5132 cbbe 38e6 0a3d 8d43 02bf
00000390: f5c7 a73e c442 ebbc 2173 0b3d e9ff 7d3c
000003a0: 0b72 cebc d488 e8bd 94f3 9c3b b2f9 a3bc
000003b0: d6fe af3c 1410 203e 72ed 153f 66dd 23be
000003c0: e535 9bbc 3b2d fbbd e55b 7bbc d700 0cbe
000003d0: 3f92 91be 3f29 213e 2f13 033e 52f5 e8bc
000003e0: 810c 313d 996a 2abd 272b 4bbc 5510 eebd
000003f0: b703 c1bc 2362 f3bd c03c 18be c2db 96bc

l2.bias f4 [10]
-0.2443469 0.056454465 -0.051936924 0.067754835 0.092187636 -0.24996874 -0.16760881 0.3012126
0.20039085 0.027585244
00000000: 1336 7abe cc3c 673d d0bb 54bd 0cc3 8a3d
00000010: dfcc bc3d cef7 7fbe a5a1 2bbe 8a38 9a3e
00000020: 4233 4d3e 73fa e13c
